model_cifar_prob_0.pt (torch, 107787 bytes, 8 tensors)

normalisation.weight f4 [100]
0	0x3fafc421	1.3731729
1	0x3f982c8e	1.1888597
2	0x3f986319	1.1905242
3	0x3fdf0c93	1.7425712
4	0x3fad32d1	1.3531133
5	0x3f909f6b	1.129865
6	0x3f9ca678	1.2238302
7	0x3fa9ee9f	1.3275946
8	0x3ff86fe7	1.940915
9	0x3fd6b0df	1.6772727
10	0x3fade8e8	1.3586702
11	0x3fa2f73f	1.2731704
12	0x3fe42a4b	1.7825407
13	0x3f9f07a9	1.2424213
14	0x3f9f95c3	1.2467579
15	0x3faebdb9	1.3651649
16	0x3f9303f4	1.1485581
17	0x3f9c195c	1.2195239
18	0x40100348	2.2502003
19	0x3f91fc6a	1.1405156
20	0x3fa26917	1.2688321
21	0x3f94fb4f	1.1639193
22	0x3f9b7f3d	1.2148205
23	0x3fa369c5	1.2766653
24	0x3fccf923	1.601353
25	0x3fa26d4b	1.2689604
26	0x3f9d6052	1.229502
27	0x3fd8290d	1.6887528
28	0x3f8b3f8c	1.0878768
29	0x3f9bbf5d	1.2167774
30	0x3fad5643	1.354195
31	0x3f9bb1e4	1.2163663
32	0x3faaa891	1.3332692
33	0x3f9c15ec	1.219419
34	0x3fc7eb10	1.561861
35	0x3f9b46cf	1.2130984
36	0x3fb55bac	1.4168601
37	0x3fa3f8d5	1.2810313
38	0x3f9b2261	1.2119867
39	0x3fa9da8c	1.326982
40	0x3f989a6e	1.1922128
41	0x3f8fd094	1.1235528
42	0x3fb9588a	1.4480145
43	0x3fd27cb7	1.644431
44	0x3fa00232	1.250067
45	0x3fb71a00	1.430481
46	0x3f9eb41f	1.2398719
47	0x3fa86445	1.31556
48	0x3fbf5f4d	1.4950958
49	0x3fd0efd3	1.6323189
50	0x3fbe0c53	1.4847511
51	0x3f80b14a	1.0054104
52	0x3fd89abb	1.692222
53	0x3fe429ac	1.7825217
54	0x3f9d1de3	1.2274746
55	0x40015a8c	2.0211515
56	0x3f9d8797	1.2307004
57	0x3f904f22	1.127415
58	0x3fc7e206	1.5615852
59	0x3fbe98b8	1.4890356
60	0x3fb36d97	1.4017819
61	0x3f9b076c	1.211164
62	0x3f91f310	1.1402302
63	0x3fb46a68	1.4094973
64	0x3fbcd44e	1.475229
65	0x3fd87ff8	1.6914053
66	0x3f90e1e5	1.1318938
67	0x3fa4cb7c	1.2874599
68	0x3fb8f47e	1.4449613
69	0x3fd83e24	1.6893964
70	0x3f9ee805	1.2414557
71	0x3fc7ac40	1.5599442
72	0x3fa3d6bb	1.2799906
73	0x3fc6f6d8	1.5544081
74	0x3fb6514f	1.4243563
75	0x3fc7b8be	1.5603254
76	0x3fb42f87	1.4077004
77	0x3fbde54c	1.4835601
78	0x4000a8e9	2.0103095
79	0x3fadd0e1	1.357937
80	0x3fbc0d52	1.4691565
81	0x3fca3665	1.579785
82	0x3fb1d130	1.3891964
83	0x3fb4d62f	1.4127864
84	0x3fc4f92b	1.538854
85	0x3fc93232	1.5718443
86	0x3fc3e83d	1.5305248
87	0x3faf4bcf	1.369501
88	0x3fdb887e	1.7151029
89	0x3fd70a49	1.6800014
90	0x3faf176f	1.3679026
91	0x3fae2228	1.3604174
92	0x3fbc22b8	1.4698095
93	0x3faa941f	1.3326453
94	0x3fb7aa02	1.4348757
95	0x4005a4a2	2.0881734
96	0x3fab9839	1.340583
97	0x3fb49747	1.4108666
98	0x3fba2b46	1.4544456
99	0x3fa2e038	1.2724676

normalisation.bias f4 [100]
0	0xbe86b2d9	-0.26308325
1	0xbe06faf3	-0.13181667
2	0xbe639bee	-0.22227451
3	0xbd6e4526	-0.058171414
4	0xbcb740ad	-0.022369707
5	0xbe878706	-0.26470202
6	0xbe97d4d2	-0.29654557
7	0xbe843e5e	-0.25828832
8	0xbe7b18ef	-0.2452123
9	0xbbe3f56f	-0.006956748
10	0xbe491c8d	-0.19639798
11	0xbe460a18	-0.19339788
12	0xbe3c1442	-0.18367103
13	0xbd77ca24	-0.06049551
14	0xbde23d3c	-0.11046836
15	0xbdf6db09	-0.120534964
16	0xbe7c809e	-0.24658439
17	0xbe7c9c10	-0.24668908
18	0x3d12430f	0.035708483
19	0xbe5b81e6	-0.21436271
20	0xbe505f6a	-0.20348898
21	0xbe7f31c7	-0.24921332
22	0xbe8ec170	-0.27881956
23	0xbd836589	-0.06415851
24	0xbe4d46d8	-0.20046556
25	0xbd80d8d2	-0.06291355
26	0xbe4ba652	-0.19887665
27	0xbe816e64	-0.25279534
28	0xbe6e0923	-0.23245673
29	0xbdf00d9d	-0.117213465
30	0xbe46eeb8	-0.19427001
31	0xbde0709b	-0.10958978
32	0xbdba3ab6	-0.090932295
33	0xbe45b785	-0.19308288
34	0xbe82561c	-0.2545632
35	0xbdac7117	-0.08420008
36	0xbe574966	-0.21024093
37	0xbe40f2e1	-0.18842651
38	0xbe95b6b7	-0.29240963
39	0xbe53eabf	-0.20695017
40	0xbe458930	-0.19290614
41	0xbe7a7a4a	-0.24460712
42	0xbde43c77	-0.11144345
43	0xbe0429a0	-0.12906504
44	0xbccfec61	-0.025381269
45	0x3dad7fa6	0.08471613
46	0xbd293710	-0.041312277
47	0xbe2cbd30	-0.16869044
48	0xbe65a331	-0.22425534
49	0x3e0a9f2f	0.13537286
50	0xbd998ca4	-0.07497528
51	0xbe82e7c4	-0.25567448
52	0xbd2cab76	-0.042155705
53	0xbca2ceca	-0.019873995
54	0xbe5b10d6	-0.21393141
55	0x3e8267a3	0.25469694
56	0xbe841ea2	-0.2580462
57	0xbe1b4509	-0.15163054
58	0xbe378d41	-0.17924978
59	0x3dd1dcec	0.10247216
60	0xbe6496b6	-0.22323117
61	0xbe8b0efc	-0.2715987
62	0xbe84f9c4	-0.25971806
63	0xbe4869d7	-0.19571625
64	0xbdf78737	-0.12086337
65	0xbe1941e6	-0.14966545
66	0x3c457427	0.012051619
67	0xbe485c2b	-0.1956641
68	0x3e3e4f2c	0.18584889
69	0x3b34afaa	0.0027570524
70	0x3dcd45ab	0.10023054
71	0xbd44327a	-0.0478997
72	0xbdd79be8	-0.10527784
73	0x3dc3ddf4	0.095638186
74	0x3e421dc3	0.18956666
75	0x3c7d28aa	0.01545159
76	0x3d8fda6e	0.07024084
77	0x3b18da93	0.002332364
78	0x3e37ad2c	0.17937154
79	0x3e17b330	0.14814448
80	0x3e26d62e	0.1629264
81	0x3e9240f1	0.2856517
82	0xbdbc4efb	-0.09194752
83	0xbe103762	-0.14083627
84	0x3e7f861f	0.24953507
85	0x3e17b45d	0.14814897
86	0x3e35e766	0.17764053
87	0xbd78a098	-0.06070003
88	0x3e69f83f	0.22848605
89	0x3e0766e2	0.1322284
90	0x3d67af30	0.056563556
91	0xbd64fd97	-0.055905905
92	0x3e6e8f51	0.23296858
93	0xbe09e49d	-0.13466115
94	0x3e07688c	0.13223475
95	0xbdcee18f	-0.10101616
96	0xbdc99279	-0.098423906
97	0xbdb3a874	-0.08772364
98	0xbd208fb9	-0.039199565
99	0xbe4da0e7	-0.2008091

normalisation.running_mean f4 [100]
0	0x3b0988f1	0.0020986164
1	0x3b038507	0.0020068304
2	0x3b0e95b4	0.002175671
3	0x3b0f9fde	0.0021915357
4	0x3b09fb03	0.0021054156
5	0x3b0f07c7	0.0021824704
6	0x3b0e23a4	0.0021688724
7	0x3b0962ec	0.0020963503
8	0x3b0e23a4	0.0021688724
9	0x3b0e5cac	0.0021722717
10	0x3b080cb7	0.0020759532
11	0x3b115521	0.0022175985
12	0x3b0dc498	0.0021632072
13	0x3b120039	0.0022277965
14	0x3b0962ec	0.0020963503
15	0x3b0e49ad	0.0021711395
16	0x3b0ef4c5	0.0021813374
17	0x3b0bc349	0.0021326116
18	0x3b071593	0.0020612224
19	0x3b0bc349	0.0021326116
20	0x3b0ce073	0.0021496087
21	0x3b0a5a12	0.0021110815
22	0x3b0774a1	0.0020668881
23	0x3b0a931b	0.002114481
24	0x3b0a470d	0.0021099478
25	0x3b10f612	0.0022119326
26	0x3b070290	0.0020600893
27	0x3b858fd7	0.004075985
28	0x38eda42f	0.00011331622
29	0x3b07f9b5	0.0020748202
30	0x3b0a931b	0.002114481
31	0x3b0f40d1	0.0021858702
32	0x3b0903dd	0.0020906844
33	0x3b0c485b	0.0021405432
34	0x3b0c9469	0.0021450764
35	0x3b0dfda1	0.0021666067
36	0x3b08ddd7	0.002088418
37	0x3f41dd28	0.7572808
38	0x3b0b182d	0.0021224127
39	0x3b91389d	0.0044317977
40	0x3b0ca76a	0.0021462091
41	0x3b0cba70	0.002147343
42	0x3b0f53d2	0.002187003
43	0x3b0ccd71	0.0021484757
44	0x3b09aef8	0.002100883
45	0x3b0832be	0.0020782198
46	0x3b0e49ad	0.0021711395
47	0x3b8b0eae	0.0042436933
48	0x3cda6aa2	0.026662175
49	0x3b09c1fa	0.002102016
50	0x3b0bc349	0.0021326116
51	0x3b0c0f53	0.0021371439
52	0x3b07c0ac	0.0020714207
53	0x3b1fbd53	0.002437432
54	0x3b0b052b	0.0021212797
55	0x3b880cb7	0.0041519064
56	0x3b0bb044	0.002131478
57	0x38eda42f	0.00011331622
58	0x3b110917	0.0022130662
59	0x3b09fb03	0.0021054156
60	0x3b050140	0.0020294935
61	0x3b063170	0.0020476244
62	0x3b0b052b	0.0021212797
63	0x3b058655	0.0020374258
64	0x3b0b3e34	0.0021246793
65	0x3b0a6d14	0.0021122145
66	0x3b5b2660	0.0033439621
67	0x3b06a381	0.0020544233
68	0x3b1499a1	0.0022674578
69	0x3b0ce073	0.0021496087
70	0x3b1eff37	0.0024261007
71	0x3b16d3f7	0.0023014524
72	0x3b0bb044	0.002131478
73	0x3b123944	0.0022311965
74	0x3b12d15d	0.0022402622
75	0x3b08f0db	0.0020895514
76	0x3b0891cd	0.0020838857
77	0x3b0a210a	0.0021076822
78	0x3b086bc6	0.002081619
79	0x3b0ee1c0	0.0021802038
80	0x3b0ffeec	0.0021972014
81	0x3b133069	0.0022459275
82	0x3b054d4c	0.0020340262
83	0x3b0ffeec	0.0021972014
84	0x3b0f8cda	0.0021904022
85	0x3b0ea8b8	0.0021768045
86	0x3b0c2257	0.0021382773
87	0x3b072896	0.0020623556
88	0x3b0f1ac9	0.0021836034
89	0x3b0e10a2	0.0021677394
90	0x3b118e29	0.0022209978
91	0x3b0b9d43	0.0021303452
92	0x3b163be2	0.0022923877
93	0x3b10aa06	0.0022073998
94	0x3b12d15d	0.0022402622
95	0x3b0d0679	0.002151875
96	0x3b129854	0.0022368627
97	0x3b0f1ac9	0.0021836034
98	0x3b0d3f83	0.0021552749
99	0x3b0c5b5f	0.0021416766

normalisation.running_var f4 [100]
0	0x2d509c18	1.1858091e-11
1	0x2d3ec2ca	1.08435014e-11
2	0x2d6035e1	1.2744889e-11
3	0x2d637dd3	1.2931395e-11
4	0x2d51f68d	1.193502e-11
5	0x2d619cee	1.2824615e-11
6	0x2d5ecf91	1.2665328e-11
7	0x2d5028bd	1.1832477e-11
8	0x2d5ecf91	1.2665328e-11
9	0x2d5f828b	1.2705069e-11
10	0x2d4c20e2	1.1603359e-11
11	0x2d68ef46	1.32408026e-11
12	0x2d5da60d	1.2599266e-11
13	0x2d6b1517	1.3362886e-11
14	0x2d5028bd	1.1832477e-11
15	0x2d5f46c5	1.2691796e-11
16	0x2d61610a	1.2811316e-11
17	0x2d576c34	1.2245361e-11
18	0x2d493dfc	1.14392905e-11
19	0x2d576c34	1.2245361e-11
20	0x2d5adeef	1.24413665e-11
21	0x2d53185f	1.1999373e-11
22	0x2d4a596f	1.1502229e-11
23	0x2d53c670	1.2038023e-11
24	0x2d52de57	1.1986487e-11
25	0x2d67befc	1.3173237e-11
26	0x2d490535	1.1426683e-11
27	0x2e44bb3f	4.473155e-11
28	0x291bb38b	3.4572642e-14
29	0x2d4be7d7	1.1590693e-11
30	0x2d53c670	1.2038023e-11
31	0x2d625121	1.2864627e-11
32	0x2d4f091e	1.1768612e-11
33	0x2d590747	1.2336638e-11
34	0x2d59f2b2	1.2388911e-11
35	0x2d5e5879	1.2638884e-11
36	0x2d4e964e	1.1743119e-11
37	0x342a50fa	1.5861943e-07
38	0x2d555dfe	1.2128519e-11
39	0x2e6893ec	5.2882074e-11
40	0x2d5a2ddf	1.2402051e-11
41	0x2d5a68f4	1.241517e-11
42	0x2d628d23	1.2877951e-11
43	0x2d5aa3aa	1.2428206e-11
44	0x2d510f62	1.188369e-11
45	0x2d4c9301	1.1628699e-11
46	0x2d5f46c5	1.2691796e-11
47	0x2e5540dc	4.84882e-11
48	0x31038746	1.9139903e-09
49	0x2d514940	1.1896539e-11
50	0x2d576c34	1.2245361e-11
51	0x2d5856ea	1.2297477e-11
52	0x2d4b3cdd	1.1552728e-11
53	0x2d8cb3f3	1.599607e-11
54	0x2d55239f	1.2115558e-11
55	0x2e4c20e2	4.6413436e-11
56	0x2d5731a1	1.2232355e-11
57	0x291bb38b	3.4572642e-14
58	0x2d67fbef	1.318677e-11
59	0x2d51f68d	1.193502e-11
60	0x2d431813	1.1089812e-11
61	0x2d46983e	1.12888015e-11
62	0x2d55239f	1.2115558e-11
63	0x2d449f30	1.1176657e-11
64	0x2d55d2b4	1.2154434e-11
65	0x2d53527e	1.2012278e-11
66	0x2e0469c6	3.010727e-11
67	0x2d47eaa8	1.13639445e-11
68	0x2d7386e9	1.3842907e-11
69	0x2d5adeef	1.24413665e-11
70	0x2d8b65dd	1.5847707e-11
71	0x2d7ae215	1.4261055e-11
72	0x2d5731a1	1.2232355e-11
73	0x2d6bcccb	1.3403677e-11
74	0x2d6db83e	1.35128e-11
75	0x2d4ecfa2	1.1755848e-11
76	0x2d4db0ff	1.1692202e-11
77	0x2d526a6e	1.196075e-11
78	0x2d4d3e87	1.1666785e-11
79	0x2d61251b	1.2798008e-11
80	0x2d64ab68	1.2998359e-11
81	0x2d6eec81	1.3581248e-11
82	0x2d43f766	1.11394e-11
83	0x2d64ab68	1.2998359e-11
84	0x2d63419d	1.2918025e-11
85	0x2d60717f	1.2758127e-11
86	0x2d5891b1	1.23105285e-11
87	0x2d497644	1.14517874e-11
88	0x2d61d910	1.2837967e-11
89	0x2d5e93f9	1.26520955e-11
90	0x2d69a640	1.32814315e-11
91	0x2d56f717	1.2219357e-11
92	0x2d78e94b	1.4148969e-11
93	0x2d66cc1a	1.3119306e-11
94	0x2d6db83e	1.35128e-11
95	0x2d5b5514	1.24676e-11
96	0x2d6cffcf	1.3471848e-11
97	0x2d61d910	1.2837967e-11
98	0x2d5c06ae	1.2507035e-11
99	0x2d59420f	1.234969e-11

fc1.weight f4 [128, 100]
0	0x3e8225fd	0.25419608
1	0x3e4e2d66	0.20134506
2	0x3e89fb27	0.26949427
3	0x3e6a9b74	0.22910863
4	0x3e92ad68	0.28647923
5	0x3e0c2d80	0.13689232
6	0x3e92c58b	0.28666338
7	0x3ea8c412	0.3296209
8	0x3d3fea30	0.046854198
9	0x3e761166	0.24030074
10	0x3e35c8f8	0.17752445
11	0x3e49e2ab	0.19715373
12	0x3f07884a	0.52942336
13	0x3e8ebcdb	0.2787846
14	0x3e4a8ace	0.19779512
15	0x3e45c10d	0.19311924
16	0x3e137fc9	0.14404215
17	0x3e942b37	0.2893922
18	0xbe87c257	-0.26515457
19	0x3e2446c0	0.16042614
20	0x3e549f5c	0.20763916
21	0x3e3a49d7	0.1819223
22	0xbd3c4dd3	-0.045972656
23	0x3e51053d	0.20412154
24	0xbe9869ec	-0.29768312
25	0x3e07c595	0.13258965
26	0x3e428e63	0.18999629
27	0x3e3b3336	0.18281254
28	0x3e172ff9	0.14764394
29	0x3e05838b	0.13038461
30	0x3e232162	0.15930703
31	0x3e17a2a7	0.1480814
32	0x3e60ca2d	0.21952124
33	0x3e4ab266	0.19794616
34	0xbe756fff	-0.23968504
35	0x3dd9dc03	0.10637667
36	0xbeec7456	-0.46182507
37	0x3e04b0b6	0.12958035
38	0xbc26fca6	-0.010192072
39	0x3e93ae89	0.28844097
40	0x3e217998	0.1576904
41	0x3e6254d9	0.2210268
42	0x3e55b2c5	0.20868976
43	0x3e58d817	0.21176182
44	0x3e92c606	0.28666705
45	0x3dc7838a	0.09741886
46	0x3da29bd5	0.07939879
47	0x3ea924a8	0.3303578
48	0x3eabaf44	0.33532155
49	0x3e343f32	0.17602232
50	0x3e692f60	0.22771978
51	0xbd129634	-0.035787776
52	0x3e9ee517	0.31034157
53	0x3e43333f	0.19062518
54	0x3e80e0fb	0.25171646
55	0xbe1af30a	-0.15131775
56	0xbe810958	-0.2520244
57	0x3df4b3af	0.119483344
58	0x3bf69bff	0.0075259204
59	0x3e946b41	0.28988078
60	0x3e09f882	0.13473704
61	0x3e7084b0	0.23488116
62	0x3d8e3c52	0.06945099
63	0x3e01678f	0.1263716
64	0x3e33ee3a	0.17571345
65	0x3e6dee17	0.23235355
66	0xbe1e11bf	-0.15436457
67	0x3e004dc5	0.12529667
68	0x3d9358ab	0.071946464
69	0x3e1a3f81	0.15063287
70	0xbd8d4cc8	-0.068994105
71	0x3d7bf6f1	0.0615148
72	0x3e2ace24	0.16680199
73	0xbe981480	-0.2970314
74	0xbe7039ad	-0.23459502
75	0xbf109641	-0.5647927
76	0xbe1af36b	-0.15131919
77	0xbd39143e	-0.04518532
78	0xbe0ce15c	-0.13757843
79	0xbdc15559	-0.09440107
80	0x3d69379d	0.056937803
81	0xbe8bb9ce	-0.27290195
82	0xbdc63c3f	-0.0967946
83	0xbed8c97d	-0.42341223
84	0xbee3cf52	-0.4449411
85	0xbf19c529	-0.6006647
86	0xbb83d540	-0.004023224
87	0xbdd7b485	-0.10532478
88	0xbe937192	-0.28797585
89	0xbea1f948	-0.316355
90	0xbe83601e	-0.2565927
91	0xbeacd33b	-0.33754906
92	0xbe231939	-0.1592759
93	0xbe70c7a6	-0.2351366
94	0xbe7e8ebb	-0.24859135
95	0xbed4bf33	-0.41552123
96	0xbe9b33fe	-0.30313104
97	0xbe2e4cc7	-0.17021476
98	0xbe58bffb	-0.21166985
99	0xbeacc446	-0.33743495
100	0xbe135039	-0.14386071
101	0x3e5055cf	0.20345233
102	0x3ebdb444	0.37051594
103	0x3e3c6eb3	0.18401603
104	0x3e1a9d07	0.15098964
105	0x3d33fe9d	0.04394399
106	0x3e66ea88	0.22550404
107	0x3de3f266	0.11130218
108	0x3da18dcb	0.07888373
109	0x3dec1a4d	0.11528454
110	0xbea78918	-0.32721782
111	0xbe16fcda	-0.14744893
112	0x3eb671f0	0.35633802
113	0x3dfa5dd6	0.12224929
114	0x3d7f980b	0.06240086
115	0x3bb7da1a	0.0056107165
116	0x3d4016fa	0.046896912
117	0x3d63106a	0.055435576
118	0xbe801ca7	-0.2502186
119	0x3e099383	0.13435178
120	0x3e8ac691	0.2710462
121	0x3d7c4c2f	0.06159609
122	0xbe43a153	-0.19104509
123	0x3dec5aae	0.11540733
124	0xbef200c0	-0.47266197
125	0x3e36a615	0.17836793
126	0x3eabfdad	0.33591977
127	0xbd53a105	-0.051667232
128	0x3e1840b6	0.14868435
129	0x3d7fc267	0.062441256
130	0x3e969cc0	0.29416466
131	0xbd5ff78c	-0.05467944
132	0x3e495d02	0.19664386
133	0x3bcace9a	0.0061891796
134	0x3e7fe6d4	0.24990398
135	0x3dc9d57d	0.09855173
136	0xbc9f3dec	-0.019438706
137	0x3e24ef7d	0.16106983
138	0xbe52223d	-0.20520873
139	0x3dcaa6c1	0.09895087
140	0xbb50674e	-0.0031799856
141	0x3e00c576	0.12575325
142	0x3e5d45d9	0.21608676
143	0xbdc9cff7	-0.09854119
144	0x3e14b495	0.14522012
145	0xbd941bc5	-0.07231859
146	0x3da00840	0.078140736
147	0x3e866341	0.262476
148	0x3e71e40e	0.23622152
149	0xbdd362d1	-0.10321582
150	0x3eb81db5	0.35960165
151	0xbe35b1e3	-0.1774364
152	0x3da351ec	0.0797461
153	0x3e15c89a	0.14627305
154	0x3e0bd012	0.13653591
155	0xbe0ed731	-0.13949277
156	0x3cb55659	0.0221359
157	0x3df05d80	0.11736584
158	0xbe10d8aa	-0.14145151
159	0x3e12d268	0.14338076
160	0x3f1436e7	0.57896274
161	0x3caf48e0	0.021397054
162	0xbd899340	-0.06717539
163	0xbe21ff33	-0.15820007
164	0xbcd33a27	-0.025784565
165	0xbc2fc50e	-0.010728134
166	0xbccc6a84	-0.024953134
167	0xbc60714b	-0.013698886
168	0x3e73e6be	0.2381849
169	0x3d0101c2	0.031495817
170	0x3d27166c	0.040792868
171	0x3e0b9005	0.13629158
172	0x3d2d0b95	0.042247374
173	0xbe825cb2	-0.25461346
174	0xbe770763	-0.24123912
175	0xbef64cf6	-0.48105592
176	0xbe54c0dc	-0.20776695
177	0xbd54d4e6	-0.05196085
178	0xbddcbfcc	-0.1077877
179	0xbe26050d	-0.16212864
180	0xbea16981	-0.31525806
181	0xbe9ff0f3	-0.31238517
182	0xbe46a0a4	-0.19397217
183	0xbed3c626	-0.41362113
184	0xbed7f6fe	-0.42180628
185	0xbed5a001	-0.41723636
186	0xbd1ba537	-0.037999358
187	0xbe529eda	-0.2056841
188	0xbe841432	-0.25796658
189	0x3ed52bb9	0.4163492
190	0xbbeed539	-0.0072886017
191	0xbea7035d	-0.32619753
192	0xba878147	-0.001033821
193	0x3e16e664	0.14736325
194	0x3dbf597c	0.0934324
195	0x3e2dc2f6	0.16968903
196	0x3e42208f	0.18957733
197	0x3ecffb71	0.40621522
198	0x3de51fa9	0.11187679
199	0x3dda4b2a	0.10658868
200	0x3e479895	0.19491799
201	0x3e725b9d	0.2366776
202	0x3e8229cc	0.25422513
203	0x3e62549f	0.22102593
204	0x3e3279b6	0.17429242
205	0x3e99d3c2	0.3004437
206	0x3ed7f0b1	0.4217582
207	0x3eb16e0f	0.3465428
208	0xbe77981a	-0.24179116
209	0x3e651699	0.22371902
210	0xbec05878	-0.37567496
211	0xbe10ff82	-0.14159968
212	0x3dab52bf	0.08365392
213	0x3e637b13	0.22214918
214	0x3e22cada	0.15897694
215	0x3e8f1944	0.27948964
216	0x3e941832	0.2892471
217	0x3e52370c	0.20528811
218	0x3e52341a	0.20527688
219	0x3aa97e89	0.0012931387
220	0x3e8d4ab2	0.2759605
221	0x3e4cd2ab	0.20002238
222	0x3ea49d32	0.3215118
223	0x3e675ab1	0.2259319
224	0x3e9a1ba5	0.30099216
225	0x3e453b2a	0.1926085
226	0x3e865724	0.26238358
227	0x3ea93241	0.33046153
228	0x3e4b6282	0.19861796
229	0x3cd61c80	0.026136637
230	0x3e5f0362	0.21778634
231	0x3e7484a9	0.23878731
232	0x3e8145b4	0.25248492
233	0x3e526d7a	0.20549574
234	0x3db5587d	0.088547684
235	0x3dd897c3	0.10575821
236	0xbee0302d	-0.43786755
237	0x3dbaa33d	0.091131665
238	0x3e030fdd	0.1279902
239	0x3ea16ac3	0.31526765
240	0xbe435dfb	-0.1907882
241	0x3ea3b3fd	0.31973258
242	0x3dcb7a32	0.09935416
243	0x3ea63cb6	0.32468194
244	0x3e835846	0.25653285
245	0x3e489461	0.19587852
246	0x3de249bb	0.11049219
247	0x3ed13c70	0.40866423
248	0xbf0d1fe0	-0.5512676
249	0x3d0fc82a	0.035103
250	0x3ecd10df	0.40051934
251	0x3ec858ff	0.391304
252	0x3e902b7b	0.28158173
253	0x3e91ba7b	0.28462586
254	0xbe23ce5a	-0.15996686
255	0x3ea05107	0.3131182

fc1.bias f4 [128]
0	0x3dc5934e	0.09647237
1	0xbcb324f5	-0.021868208
2	0xbb194e1c	-0.0023392504
3	0x3e0d7d4f	0.13817333
4	0x3c15f5a6	0.009152805
5	0x3e0d464a	0.13796344
6	0x3db511a0	0.08841252
7	0x3db3283d	0.08747909
8	0x3d8ebe5b	0.06969901
9	0x3d8af76b	0.067854725
10	0xbdf4c79a	-0.119521335
11	0x3da0112a	0.07815774
12	0xbc21f123	-0.009884152
13	0x3e3bd0a9	0.18341316
14	0x3dcaa5d2	0.09894909
15	0x3e3e2ef5	0.185726
16	0x3d4cb392	0.04997594
17	0x3e0deac2	0.13859084
18	0x3df174c4	0.117898494
19	0x3caf5811	0.021404298
20	0x3e48b2a0	0.1959939
21	0x3d4107c1	0.047126535
22	0x3d952be3	0.07283761
23	0x3e04518b	0.12921731
24	0x3de15744	0.11002973
25	0x3d5dfb3d	0.054194678
26	0x3e422134	0.18957978
27	0x3dc8f4ed	0.09812341
28	0x3e3b446d	0.18287821
29	0x3c886691	0.01665047
30	0x3e29e94f	0.16592906
31	0x3d2fa30b	0.0428801
32	0x3e45ea2d	0.19327612
33	0x3e5a23e8	0.2130276
34	0x3e2e37a8	0.17013419
35	0x3cff57a4	0.03116972
36	0x3d9b42c2	0.075810924
37	0x3e338267	0.17530213
38	0x3e40e288	0.18836415
39	0x3c95f975	0.018307427
40	0x3d3ceafe	0.046122544
41	0x3db5bda9	0.088740654
42	0xbd135d81	-0.035977844
43	0x3ca057e3	0.019573158
44	0x3e4374c7	0.19087516
45	0x3e72f495	0.23726113
46	0x3d827848	0.06370598
47	0x3e438018	0.19091833
48	0x3e15f0dc	0.14642662
49	0x3e402ccc	0.18767089
50	0x3e2b8521	0.16750003
51	0x3e33285d	0.17495866
52	0x3e1966da	0.14980641
53	0x3de514f6	0.111856386
54	0xbc9afe1a	-0.018919993
55	0x3d3eefd4	0.046615437
56	0xbd34a70d	-0.044104625
57	0x3d1260ee	0.03573697
58	0x3e6967a3	0.2279344
59	0x3e137b7c	0.14402574
60	0x3e0e705d	0.1391005
61	0xbd3d7c46	-0.046261095
62	0x3dafcb05	0.08583645
63	0x3d7ccebb	0.06172059
64	0x3e4b4043	0.19848733
65	0x3e27c0a9	0.16382088
66	0x3e6e901b	0.2329716
67	0x3d572f6d	0.052535463
68	0x3e2f0fec	0.17095917
69	0xbd00aa56	-0.031412445
70	0x3d2fc8b6	0.042916022
71	0x3e167d4d	0.14696236
72	0xbb9d4242	-0.0047991583
73	0x3dc18360	0.09448886
74	0x3d827278	0.063694894
75	0xbc6eeaaa	-0.014582315
76	0x3ca963ae	0.020677414
77	0x3d94206d	0.07232747
78	0x3ce464a8	0.027880028
79	0x3d703dec	0.058652803
80	0x3e454467	0.19264375
81	0x3d8a5b2f	0.06755673
82	0x3d8d2768	0.06892282
83	0x3e32047e	0.17384526
84	0x3d8bf82e	0.06834446
85	0x3d765664	0.060140982
86	0x3e1c5e33	0.15270309
87	0x3da7febd	0.08202884
88	0x3d3f070d	0.046637584
89	0x3e169661	0.14705803
90	0x3e411e51	0.18859221
91	0x3dc7465f	0.09730219
92	0x3e1ec102	0.15503314
93	0x3e143f9e	0.14477393
94	0x3da1eb4f	0.0790621
95	0x3e4cb218	0.19989812
96	0x3cc581e5	0.02410979
97	0x3dfe0963	0.12404134
98	0x3e4a3b4a	0.1974918
99	0x3cdffbe6	0.027341794
100	0x3da35a14	0.079761654
101	0x3e8523c2	0.26003844
102	0x3c8b155c	0.016977958
103	0x3e3a61b0	0.18201327
104	0x3e366b4e	0.17814371
105	0x3e1dcceb	0.15410201
106	0xbc9da00b	-0.019241353
107	0x3e1933ed	0.14961214
108	0x3dcd0c36	0.10012095
109	0x3d00da41	0.031458143
110	0x3e37e949	0.17960085
111	0x3e35ba55	0.17746861
112	0x3e22f389	0.15913214
113	0x3e2ba746	0.16763029
114	0x3e12aa1f	0.14322709
115	0x3d9a332b	0.07529291
116	0x3e049a12	0.12949398
117	0x3e25ea1b	0.16202585
118	0x3d36a127	0.04458728
119	0x3dcf65cf	0.1012684
120	0x3e06f9ed	0.13181277
121	0xbde80dff	-0.113307945
122	0x3de78021	0.113037355
123	0x3dfa25d6	0.12214248
124	0x3d10547e	0.035236828
125	0x3dba2e37	0.09090846
126	0x3e051971	0.12997986
127	0x3d73ac0d	0.059490252

fc2.weight f4 [100, 128]
0	0xbd83b5b6	-0.06431143
1	0xbb0d8cda	-0.0021598847
2	0xbe079888	-0.1324178
3	0xbdad8557	-0.08472698
4	0xbe275d37	-0.16344152
5	0xbcd42056	-0.025894325
6	0xbde6831e	-0.11255477
7	0xbd31556b	-0.04329435
8	0xbe2587c2	-0.16165069
9	0xbe54dee8	-0.20788157
10	0xba55dc52	-0.00081581355
11	0xbb01b8a2	-0.0019793888
12	0xbd6fc2f3	-0.058535527
13	0xbd857cc7	-0.0651794
14	0xbcf2984f	-0.029613642
15	0xbdfafe7d	-0.12255571
16	0xbe1c08eb	-0.15237777
17	0xbd59439c	-0.053042993
18	0xbe104464	-0.14088589
19	0xbcc2ddd3	-0.023787415
20	0xbdf78e32	-0.120876685
21	0xbdc7541a	-0.09732838
22	0xbd0a8203	-0.033815395
23	0xbd3f8042	-0.046753176
24	0xbd2ed427	-0.042682793
25	0xbd87b794	-0.066268116
26	0xbe29e542	-0.16591361
27	0xbd7b7f0a	-0.06140045
28	0xbdf58ec4	-0.11990121
29	0xbdf1a965	-0.117998876
30	0xbd40ffe3	-0.047119033
31	0xbe39cb3e	-0.18143937
32	0xbdfb98bb	-0.122849904
33	0xbd855972	-0.06511201
34	0xbd7fb6d0	-0.062430203
35	0xbd7abba7	-0.061214115
36	0xbe04b940	-0.12961292
37	0xbd59acaa	-0.05314318
38	0xbd7bfcd5	-0.061520416
39	0xbd6efd2e	-0.05834692
40	0xbcaf4ac9	-0.021397965
41	0xbde83726	-0.11338644
42	0xbd0b2830	-0.033973873
43	0xbd54326f	-0.05180591
44	0xbe24eae9	-0.16105236
45	0xbdf2f91d	-0.11863921
46	0xbcea649b	-0.028612426
47	0xbe1afce0	-0.15135527
48	0xbdb3e2e9	-0.08783514
49	0xbe1ef488	-0.15522969
50	0xbda6b0cf	-0.08139192
51	0xbca9de82	-0.020735983
52	0x3ca2d3bc	0.019876353
53	0xbd56f206	-0.052476905
54	0xbd8dccf0	-0.06923854
55	0xbc18bf9e	-0.009323029
56	0xbd8522b7	-0.06500762
57	0xbe042d97	-0.12908016
58	0xbd9f388c	-0.07774457
59	0xbdfe65b7	-0.12421744
60	0xbe1ce55a	-0.15321866
61	0xbde55e1a	-0.11199589
62	0xbd9484e9	-0.07251913
63	0xbdbac9a9	-0.09120495
64	0xbdeb123a	-0.11478086
65	0xbc9a5c40	-0.018842816
66	0xbd9fa61e	-0.07795356
67	0xbe21abaa	-0.15788141
68	0xbd802d41	-0.062586315
69	0xbce275d2	-0.027644072
70	0xbe03d0d6	-0.12872633
71	0xbd1ade96	-0.03780993
72	0xbdb85d06	-0.09002118
73	0xbdfe6a8c	-0.12422666
74	0xbe1a8c7c	-0.15092653
75	0x3ceacf5a	0.028663326
76	0xbdddb3b1	-0.10825289
77	0xbd0b1f9b	-0.03396569
78	0xbdfe5f57	-0.124205284
79	0xbbe5c0eb	-0.007011523
80	0xbd042b8b	-0.03226809
81	0xbdc0c2dd	-0.09412167
82	0xbd1e325a	-0.038622238
83	0xbd7a1204	-0.061052337
84	0xbd1c0a49	-0.038095746
85	0xbd21b7c1	-0.039481882
86	0xbd8a12fd	-0.06741903
87	0xbcaf0aa7	-0.021367384
88	0xbded48d6	-0.11586158
89	0xbdaec7b8	-0.08534187
90	0xbe2b11e8	-0.1670605
91	0xbdd7f3e6	-0.10544567
92	0xbda49a4c	-0.08037242
93	0xbe0d5be9	-0.13804592
94	0xbe1b3d1c	-0.1516003
95	0xbae689d8	-0.0017588688
96	0xbd088568	-0.03333035
97	0xbe221d12	-0.15831402
98	0xbcb505ed	-0.022097552
99	0xbde319ad	-0.11088882
100	0xbd67c3a7	-0.056583073
101	0xbd19129b	-0.03737126
102	0xbe0f2ac0	-0.13981152
103	0xbd8a38e4	-0.06749132
104	0xbe08e792	-0.13369587
105	0xbd4e1224	-0.05031027
106	0x3ce65da5	0.028120825
107	0xbdf050c4	-0.11734155
108	0xbca780bc	-0.020447128
109	0xbe0eeb52	-0.13956955
110	0xbe0e06ad	-0.13869734
111	0xbdb0d255	-0.08633868
112	0xbd6128ed	-0.05497067
113	0xbd2a45cc	-0.04157047
114	0xbd6eb475	-0.058277566
115	0x3bd6fc6c	0.0065608528
116	0xbdef692e	-0.11689983
117	0xbddce96c	-0.10786709
118	0xbdbeaeea	-0.09310706
119	0xbad2db99	-0.0016087174
120	0xbc149dd5	-0.009070833
121	0xbca3a3e9	-0.01997562
122	0xbd3aa245	-0.04556491
123	0x3c6a4bd1	0.014300303
124	0xbc877e79	-0.016539799
125	0xbe32eead	-0.1747386
126	0xbdcc6e48	-0.09981972
127	0xbe17e6ee	-0.14834186
128	0xbd6a2b37	-0.05717012
129	0xbe129136	-0.14313206
130	0xbdfc34a2	-0.123147264
131	0xbdf50948	-0.11964661
132	0xbdbacad4	-0.09120718
133	0xbdc16663	-0.09443357
134	0xbdff2247	-0.1245771
135	0xbde5259f	-0.11188816
136	0xbd645e0e	-0.05575376
137	0xbe3234b3	-0.17402916
138	0xbd9e61ac	-0.07733473
139	0xbb52d994	-0.0032173144
140	0xbd53ed41	-0.051739935
141	0xbe1bda7b	-0.15220062
142	0xbd67a0e9	-0.05654994
143	0xbd594c0e	-0.053051047
144	0xbdb98405	-0.09058384
145	0xbde50cde	-0.11184095
146	0xbdd5d717	-0.10441416
147	0xbdcd4cae	-0.10024391
148	0xbd753013	-0.0598603
149	0xbca3a5b6	-0.019976478
150	0xbe15598a	-0.14584938
151	0x3a7ff2a5	0.0009763635
152	0xbe1efb98	-0.15525663
153	0xbe0b5706	-0.13607416
154	0xbdbf0b1e	-0.09328292
155	0xbdd1e0b4	-0.10247937
156	0xbdf99814	-0.1218721
157	0xbe3f5b6c	-0.18687218
158	0xbe0059de	-0.12534282
159	0xbd758bea	-0.059947886
160	0xbd0583a2	-0.032596238
161	0xbd0fbf37	-0.035094466
162	0xbca688af	-0.020328848
163	0xbe2c1167	-0.16803513
164	0xbd03bd64	-0.03216304
165	0xbdf36518	-0.118845165
166	0xbe185a9e	-0.14878318
167	0xbe1cc2d7	-0.153087
168	0xbe094ab6	-0.13407406
169	0xbd44b044	-0.048019662
170	0x3b29ef31	0.0025929923
171	0xbc2dfbc7	-0.01061911
172	0xbdf1292c	-0.11775431
173	0xbe0ba382	-0.13636592
174	0xbe3c1058	-0.1836561
175	0xbe2a40f7	-0.16626345
176	0xbe1f712f	-0.1557052
177	0xbdf1fd36	-0.11815874
178	0xbe1a4dbe	-0.15068719
179	0xbdd30578	-0.103037775
180	0x3c4fafb9	0.012676173
181	0xbe08fc79	-0.1337756
182	0xbda203a1	-0.079108484
183	0xbd4f493b	-0.050606947
184	0xbd571b17	-0.05251607
185	0xbdc5712e	-0.09640728
186	0xbd24ec12	-0.040264197
187	0xbe235403	-0.15950017
188	0xbdaef8a5	-0.08543519
189	0xbe259d9d	-0.16173406
190	0xbe2d547a	-0.16926757
191	0xbd37230e	-0.044711165
192	0xbdebb1a2	-0.1150849
193	0xbde1d828	-0.11027557
194	0xbd7514d0	-0.0598343
195	0xbe1ef915	-0.15524705
196	0xbddeb7a9	-0.10874874
197	0xbe14654f	-0.14491771
198	0xbe0d347b	-0.13789551
199	0xbdac8d0f	-0.08425342
200	0xbe018e73	-0.12651996
201	0xbd6f2eaa	-0.05839411
202	0xbe095cfc	-0.13414377
203	0xbdcbd589	-0.09952838
204	0x3bf29425	0.007402914
205	0xbe33f704	-0.17574698
206	0xbe03ee71	-0.12883927
207	0xbd36cab0	-0.04462689
208	0xbbaabdfd	-0.0052106366
209	0xbd9fa964	-0.077959806
210	0xbe02738d	-0.12739392
211	0xbd749a40	-0.059717417
212	0xbd1b5ff4	-0.037933305
213	0xbd8bf4a9	-0.068337746
214	0xbc340b32	-0.010988997
215	0xbcb9d6c2	-0.022685412
216	0xbdcb1a6e	-0.099171504
217	0xbe2177d8	-0.15768373
218	0xbc62d020	-0.013843566
219	0xbd8b7027	-0.06808501
220	0xbd3edad6	-0.046595417
221	0xbcb41638	-0.021983251
222	0xbd0a8c60	-0.03382528
223	0xbe06a93a	-0.13150492
224	0xbe12e486	-0.14344987
225	0xbda6157f	-0.08109569
226	0xbe082669	-0.13295902
227	0xbd29252d	-0.04129522
228	0xbdae154d	-0.085001566
229	0xbda95430	-0.082680106
230	0xbe13e25e	-0.14441821
231	0xbcf0fcab	-0.029417356
232	0xbda3921e	-0.07986854
233	0xbd402864	-0.04691352
234	0xbd609230	-0.054826915
235	0xbcd98165	-0.026550958
236	0xbe156e73	-0.14592914
237	0xbd13c764	-0.036078826
238	0xbd03e7be	-0.03220343
239	0xbd1d6ed6	-0.03843578
240	0xbdee8113	-0.11645713
241	0xbd14e280	-0.03634882
242	0xbd845b0d	-0.06462679
243	0x3b87ccad	0.0041442723
244	0xbe01f9d0	-0.12692952
245	0xbe0a309e	-0.13495108
246	0xbddd47e6	-0.10804729
247	0xbc7c9a5d	-0.015417662
248	0xbe0498bb	-0.12948887
249	0x3dac2659	0.08405752
250	0x3be65a41	0.007029802
251	0x3baa59fe	0.005198716
252	0xbdcafa28	-0.09910995
253	0xbe41ce67	-0.18926392
254	0xbe15dc79	-0.14634885
255	0xbe0a0ba2	-0.13481

fc2.bias f4 [100]
0	0xbd3a46cd	-0.045477677
1	0xbd5bea4b	-0.053690236
2	0xbdf64ff3	-0.12026968
3	0xbe1ba8a5	-0.15201052
4	0x3bebc2ce	0.0071948534
5	0xbe0d5092	-0.13800266
6	0xbe162eb6	-0.14666256
7	0xbceaedfe	-0.028677937
8	0xbe21cf0c	-0.15801638
9	0x3b5d02e3	0.0033723644
10	0xbddbafa3	-0.107268594
11	0xbd923008	-0.071380675
12	0xbd92e8cb	-0.07173308
13	0xbdc4d54b	-0.09610995
14	0xbe18c930	-0.14920497
15	0xbc2b2764	-0.010446403
16	0xbe194d14	-0.14970809
17	0xbd1136a9	-0.03545252
18	0xbd47ec97	-0.048809614
19	0xbb89ba5c	-0.004203124
20	0xbd280d21	-0.041028146
21	0x3ca1fdce	0.019774344
22	0x3c8eab31	0.017415615
23	0xbe02e0c0	-0.12781048
24	0xbe180b0d	-0.14847966
25	0xbd85e20b	-0.06537255
26	0xbd767362	-0.06016863
27	0x3b8b99db	0.0042602844
28	0xbdeaba32	-0.11461295
29	0xbd8c5c0d	-0.06853495
30	0xbcc705c6	-0.024294745
31	0x3bc2faa1	0.0059502875
32	0xbda8e0b8	-0.08245987
33	0xbcceec72	-0.02525923
34	0xbd8f8e41	-0.07009555
35	0xbd892b59	-0.06697721
36	0xbe140b75	-0.14457496
37	0xbd3b90f5	-0.04579254
38	0xbe24406a	-0.16040197
39	0xbcd207de	-0.025638517
40	0xbe078e22	-0.13237813
41	0xbdb5c990	-0.088763356
42	0xbc2ac7bb	-0.010423596
43	0xbd7e0c15	-0.06202324
44	0xbd4474f1	-0.047963087
45	0xbe141633	-0.14461593
46	0xbd67091a	-0.056405164
47	0xbcf0ed18	-0.02940993
48	0xbdf37f4d	-0.11889515
49	0xbe28548b	-0.164385
50	0xbe1401e1	-0.14453842
51	0x3bcdd7d5	0.0062818327
52	0xbe06d29c	-0.13166279
53	0xbe1da7e0	-0.1539607
54	0xbdcacbbf	-0.09902143
55	0xbd734d29	-0.059399758
56	0xbdc6b1c1	-0.097018726
57	0xbc59d7ef	-0.0132961115
58	0xbcd8cbc2	-0.026464347
59	0xb9faac12	-0.00047811918
60	0xbdaecf84	-0.08535674
61	0x3c20c674	0.00981294
62	0xbd8b6570	-0.06806457
63	0xbdd9bbf2	-0.10631551
64	0xbe151b5d	-0.1456122
65	0xbdef9454	-0.11698213
66	0x3d96f001	0.07369996
67	0xbdca458d	-0.09876547
68	0x3d3cff90	0.04614216
69	0xbdbff007	-0.093719535
70	0x3b961a58	0.004580777
71	0xbdb3c779	-0.08778281
72	0x3c4dc005	0.012557988
73	0xbd114e5b	-0.035475116
74	0x3dbccd68	0.09218866
75	0xbc392cc1	-0.011302174
76	0x3d84d00e	0.06484996
77	0xbdb40d54	-0.08791605
78	0xbc4be4bd	-0.012444672
79	0x3e32141c	0.17390484
80	0xbda48692	-0.0803348
81	0x3dfe4c41	0.12416888
82	0xbce5e256	-0.028062027
83	0xbe220bf6	-0.15824875
84	0x3b748cf5	0.0037315462
85	0xbb5c9cde	-0.0033662836
86	0x3d3a6b81	0.04551268
87	0xbcd4d607	-0.025980962
88	0xbd9a7e61	-0.07543636
89	0x3daf913e	0.085726246
90	0x3d64e9eb	0.055887144
91	0xbc6785bc	-0.014131006
92	0x3d0c3167	0.0342268
93	0xbd9c4513	-0.07630362
94	0x3d6bbf05	0.057555217
95	0xbd3563be	-0.044284575
96	0xbcb7c21d	-0.022431428
97	0x3d971607	0.07377248
98	0x3d0ed0f8	0.034867257
99	0xbd124cd5	-0.035717804
