model_cifar_price_0.pt (torch, 56715 bytes, 7 tensors)

normalisation.weight f4 [100]
00000000: 6ed6 803f f554 7e3f 6c2c 813f 9e46 7e3f
00000010: 0c0c 823f a836 823f ef49 7f3f 875d 7f3f
00000020: af8f 803f 57fc 813f fc73 813f 51cc 7f3f
00000030: 9bb3 7f3f 437c 7c3f ead8 7f3f 074d 803f
00000040: fe5c 7f3f e820 823f 8490 7d3f 6a6b 813f
00000050: 922b 823f b254 7f3f d85a 823f 90b8 803f
00000060: 6ff9 813f 1211 7e3f 686c 7d3f a38d 7f3f
00000070: 834d 7e3f 2b51 813f be61 7d3f 951c 7d3f
00000080: fe8a 7e3f 54cc 813f 2924 823f e777 813f
00000090: 3033 823f 8cf5 803f 7862 803f 1eb6 7d3f
000000a0: a7b2 7e3f 1307 803f 6450 823f c2ee 813f
000000b0: 9f7c 803f 294c 803f 2c01 823f 771e 7e3f
000000c0: 7144 7c3f 5634 803f 9942 7f3f fc4e 7e3f
000000d0: dd0f 7e3f 5540 813f 0b49 7e3f 3b58 813f
000000e0: 728b 7b3f 2702 823f bbd5 803f e8d4 813f
000000f0: f06d 813f 543a 823f 0c5e 813f bf43 7e3f
00000100: f99a 813f e01d 823f 22e7 a33f d446 823f
00000110: 9706 823f 9f85 7c3f 1bc3 a83f 4bdf 813f
00000120: 98a5 7c3f 0924 7d3f 8635 883f 0261 823f
00000130: 51e4 8e3f bd4f 823f cb25 823f c4c6 803f
00000140: 4718 803f 3705 823f 6759 813f 5243 823f
00000150: 17b3 7a3f 7658 883f a3a8 833f c731 873f
00000160: 24d1 813f 3ae2 873f 32c9 793f b8be 823f
00000170: c46c 843f c6c2 823f 929e 803f a3f6 823f
00000180: 066f 813f e2f9 823f d4af 833f 0464 813f
1.0065439 0.99348384 1.0091681 0.99326503 1.0159926 1.017293 0.9972219 0.99752086
1.0043849 1.0155133 1.0113521 0.9992114 0.9988343 0.9862711 0.9994036 1.0023507
0.9975127 1.0166292 0.9904864 1.0110905 1.0169547 0.9973861 1.0183973 1.0056324
1.0154246 0.992448 0.9899354 0.99825495 0.99337023 1.0102895 0.9897727 0.9887174
0.99430835 1.0140481 1.0167285 1.0114716 1.0171871 1.0074935 1.003005 0.99106014
0.9949135 1.0002159 1.0180783 1.0150988 1.0038031 1.0023242 1.0156608 0.99265236
0.98541933 1.0015972 0.99710995 0.9933927 0.99242955 1.0097758 0.99330205 1.0105051
0.9825965 1.0156907 1.0065225 1.0143099 1.0111675 1.017405 1.0106826 0.9932212
1.0125419 1.0165367 1.2804911 1.0177865 1.0158261 0.9864139 1.3184541 1.0146269
0.98690176 0.9888311 1.0641334 1.0185854 1.1163427 1.0180584 1.0167783 1.0060658
1.0007409 1.0157841 1.0105408 1.0176795 0.9792952 1.0651996 1.0285839 1.0562066
1.014195 1.0615914 0.97572625 1.0214453 1.0345693 1.021569 1.0048392 1.0231518
1.0112007 1.0232508 1.0288033 1.0108647

normalisation.bias f4 [100]
00000000: 33f6 8039 3065 cb39 770a ad3a d268 6fb9
00000010: c5da 093a 0d47 05b7 b796 83b9 9937 f539
00000020: 4a38 d93a 9876 7539 12fa fdb9 627a adba
00000030: 6e3a 8a38 6eca be38 b553 56ba 861f 6eba
00000040: 68ec 1bb9 c4c4 4439 c50f b7ba d672 9f3a
00000050: 6008 dd38 0d5d dcb9 6b4f c2b9 45ff cbb7
00000060: 987a 2f39 378b 78b9 86fe 8238 f861 c039
00000070: 5cae e83a 7400 a639 b37f 23ba 9b35 05ba
00000080: 502b c23a b44a 8d39 72ea 2d3a a0e7 1a3a
00000090: 915d 8939 433c 9b39 2672 1539 563b 593a
000000a0: 9550 aab7 211b b9b9 60d0 113a 2a0a 8239
000000b0: 8634 243a 328b 8eb9 132d 2aba 2a6c eab9
000000c0: 3629 313a 1cfd b3b8 bed8 883a 4a3c 34ba
000000d0: c500 f5b9 a95a 7ab8 2561 2eba d35d 7d39
000000e0: 0092 aab9 351b 9bba fb21 873a 8121 7ab9
000000f0: a510 d839 2f62 23b8 4fcb a938 15bb 9b39
00000100: 7640 14b9 7758 733a abd6 4f3b c9c9 40ba
00000110: 1bf0 c5b8 2eab 8fba d611 6cba 6a89 84b9
00000120: fac5 413a d1fc 50ba 481a a9b9 7201 2439
00000130: 974b 113b af72 99ba db0f af39 d63d 80ba
00000140: 558a 9d39 ddcb 533a c182 8a3a 5f88 213a
00000150: 1456 0f39 13fe 8e39 042a f839 b8fa 7538
00000160: 7422 9939 67dd 5cb8 29ef 2137 4f35 f8b9
00000170: 2984 2fb9 909d 8c3a f796 9239 0334 e23a
00000180: b989 f9b9 d4e9 f239 5731 ebb8 6772 54ba
0.00024597495 0.00038794568 0.0013201971 -0.00022831865 0.00052587345 -7.943961e-06 -0.00025098558 0.00046771465
0.0016572562 0.000234092 -0.00048442237 -0.0013235325 6.591236e-05 9.0976115e-05 -0.00081759255 -0.0009083677
-0.0001487002 0.00018765318 -0.0013966492 0.0012164961 0.00010539661 -0.00042030998 -0.00037061734 -2.4318355e-05
0.0001673497 -0.00023702985 6.246292e-05 0.00036694086 0.0017752158 0.00031662325 -0.0006236985 -0.0005081535
0.0014813934 0.00026949274 0.00066343613 0.00059091486 0.0002620039 0.00029608802 0.00014252271 0.0008286735
-2.0303103e-05 -0.00035306162 0.00055623613 0.00024803105 0.000626393 -0.0002718806 -0.0006491702 -0.00044712547
0.0006758155 -8.5825304e-05 0.0010440571 -0.0006875439 -0.00046730615 -5.968908e-05 -0.0006652049 0.00024162912
-0.00032533705 -0.001183367 0.001030981 -0.00023854339 0.00041211132 -3.895367e-05 8.096417e-05 0.0002970329
-0.00014138393 0.00092828966 0.0031713645 -0.0007354287 -9.438415e-05 -0.001096105 -0.00090053433 -0.00025279383
0.00073918665 -0.0007972243 -0.00032253773 0.00015640797 0.00221703 -0.0011707152 0.00033390414 -0.0009784054
0.0003004844 0.0008079389 0.0010567532 0.00061619835 0.0001366961 0.0002727365 0.0004733355 5.8646052e-05
0.00029208104 -5.2658284e-05 9.652032e-06 -0.00047341964 -0.00016738534 0.001072811 0.00027959768 0.0017257932
-0.00047595592 0.00046332052 -0.000112148635 -0.00081042055

normalisation.running_mean f4 [100]
00000000: c8a6 7626 1461 b125 c6b2 5125 6ee4 2325
00000010: a00b fa24 9493 b425 0a0d 1226 29f7 2f26
00000020: a43a 8024 7a5e 8625 d624 0a25 45d7 e527
00000030: c393 2825 bb70 3e25 c456 4825 5e55 1a26
00000040: c29d f026 7928 8b25 0b33 9c26 1ff3 4b26
00000050: 7aaa 2026 9f15 2a26 0eee b926 0c2d a025
00000060: 1085 3225 1b90 eb24 af2d db24 ade9 a925
00000070: 7dac 0227 be0e 9525 30d9 3828 6a9e 4726
00000080: 097a 7b25 f0c6 4e26 8fbb c525 24b4 3526
00000090: 35d3 0625 c90c 2d25 2afa c825 31a3 d725
000000a0: e77e 9c25 981c d325 1091 bf25 71d6 5125
000000b0: 5b58 1426 89a6 fa24 1c3a 5625 c832 f824
000000c0: c196 3a26 3497 a025 2ba2 5626 d5be c625
000000d0: 5614 2026 bc7c 1227 628d 7426 a455 a127
000000e0: 8867 0626 b790 d825 925d 8725 9a76 1126
000000f0: 3c78 5a26 cf26 6426 87f2 a726 dc8b 8826
00000100: a202 9c25 3ff2 5026 fcff 7f3f de1f 9d25
00000110: 51ec a227 b8b6 c825 10c8 0420 7255 5126
00000120: 8dab 9925 b157 9026 b515 ed21 b775 f326
00000130: 86e3 b41b 1b39 7b26 cd93 d527 f9ca 2e1e
00000140: 8b80 c325 43f3 f71b 3fd8 1725 12b6 a725
00000150: 68ac 5a26 cd6c 6e26 0e58 6325 980a 0026
00000160: 04ec 6127 1eca 6d26 d1be 1023 a9e0 ce26
00000170: 33bb 0d27 e043 d525 c13d 8926 e4fb 6f27
00000180: 6aad 0129 67f2 3a26 d640 8927 7905 6727
8.5574426e-16 3.0770388e-16 1.8188431e-16 1.4215391e-16 1.0843991e-16 3.1325025e-16 5.0671597e-16 6.1050286e-16
5.561049e-17 2.3309314e-16 1.1982072e-16 6.3793664e-15 1.4621741e-16 1.6518068e-16 1.7376632e-16 5.3545177e-16
1.6696106e-15 2.4140082e-16 1.083851e-15 7.0759264e-16 5.574219e-16 5.90099e-16 1.2901479e-15 2.77861e-16
1.5484122e-16 1.0215913e-16 9.50535e-17 2.9475172e-16 1.813463e-15 2.585737e-16 1.0261147e-14 6.9256685e-16
2.1812127e-16 7.174022e-16 3.4301147e-16 6.3041126e-16 1.1694207e-16 1.500969e-16 3.4863987e-16 3.7407138e-16
2.7147679e-16 3.662204e-16 3.3231517e-16 1.8200516e-16 5.146756e-16 1.0870234e-16 1.858123e-16 1.0763888e-16
6.4736023e-16 2.7858035e-16 7.4465943e-16 3.4476838e-16 5.553871e-16 2.0329189e-15 8.4846115e-16 4.477933e-15
4.66309e-16 3.756809e-16 2.3482173e-16 5.0467716e-16 7.579689e-16 7.9155986e-16 1.165369e-15 9.474805e-16
2.706347e-16 7.24928e-16 0.99999976 2.7256753e-16 4.5220247e-15 3.4818285e-16 1.124703e-19 7.262724e-16
2.6657517e-16 1.0015776e-15 1.606549e-18 1.6893419e-15 2.9925536e-22 8.716051e-16 5.927962e-15 9.253457e-21
3.3914212e-16 4.1019926e-22 1.3170429e-16 2.9093258e-16 7.58676e-16 8.272029e-16 1.9718946e-16 4.442328e-16
3.1352967e-15 8.249981e-16 7.846663e-18 1.4355016e-15 1.9669162e-15 3.6995604e-16 9.523023e-16 3.3304463e-15
2.8794167e-14 6.486023e-16 3.8095434e-15 3.2060657e-15

normalisation.running_var f4 [100]
00000000: b470 1f0a f4e6 7808 3989 b407 387b 6407
00000010: 8c11 2807 01ac a308 4490 5409 e13f 9809
00000020: 70e5 2306 4657 4108 5cde 3207 1f8c e50c
00000030: f420 5c07 d291 b207 b6a5 9107 c4dd 5909
00000040: 40d3 090b 3005 4d08 9cc2 810a 6bfa dc09
00000050: f784 8709 8615 9509 39b7 980a c607 8808
00000060: 293b 9207 3a8a 0607 af1b 1307 9830 6d08
00000070: 1ece 1c0b 6377 8908 475a 980d 20e8 ac09
00000080: 4e27 2808 1f5e dd09 c59a db08 1a2c 7209
00000090: 5bca 4a07 9e67 9307 0135 bb08 f471 ce08
000000a0: 023a 6f08 1f86 0009 40d2 a308 dffd 0008
000000b0: 4952 6209 a5b7 2c07 1bd5 e807 e27e 4407
000000c0: c36f b109 a0ce 5508 962d a409 ebe1 bf08
000000d0: e1c7 7809 9153 370b fc78 f309 c757 030c
000000e0: 2030 4709 a53d 0309 bf38 3908 0313 3709
000000f0: 7fb7 0a0a 260b 0f0a 2754 910a 9351 3e0a
00000100: 3714 7b08 ae12 cb09 0400 0000 5525 7808
00000110: 8b9e 180c b176 c208 8950 0000 460a d409
00000120: 68cf 8908 180a 180a aece 0802 74fd 970a
00000130: 0400 0000 da59 080a 7d22 7d0c 8803 0000
00000140: 6a30 9408 0400 0000 e548 6207 13bd 9208
00000150: 3902 d409 8e63 d109 c8e4 1608 790d 1f09
00000160: 9125 f10b e584 560a e792 4303 9ad6 080b
00000170: bba9 410b f20b 0209 7455 380a cc68 0e0c
00000180: 1321 3f0f 7de8 d009 ab46 180c 9556 f90b
7.6767686e-33 7.490127e-34 2.7164042e-34 1.7189024e-34 1.2644072e-34 9.850644e-34 2.5586405e-33 3.665274e-33
3.0825457e-35 5.8181414e-34 1.3456577e-34 3.536737e-31 1.6560645e-34 2.6868169e-34 2.1914571e-34 2.6224699e-33
2.6544167e-32 6.169604e-34 1.2495452e-32 5.3198565e-33 3.2625107e-33 3.5890686e-33 1.4705988e-32 8.18703e-34
2.200241e-34 1.0121661e-34 1.1067186e-34 7.1376715e-34 3.0199572e-32 8.273455e-34 9.389457e-31 4.1625783e-33
5.0601863e-34 5.3292326e-33 1.3216969e-33 2.9150427e-33 1.5256258e-34 2.2179002e-34 1.1267114e-33 1.2424964e-33
7.1989634e-34 1.5470503e-33 9.859635e-34 3.8817023e-34 2.724245e-33 1.299381e-34 3.5032732e-34 1.4782689e-34
4.27163e-33 6.4340242e-34 3.9524433e-33 1.1548507e-33 2.9945897e-33 3.5307386e-32 5.8613895e-33 1.0118287e-31
2.3976382e-33 1.5797537e-33 5.5738117e-34 2.2036763e-33 6.67897e-33 6.887296e-33 1.3994647e-32 9.16351e-33
7.5556327e-34 4.888804e-33 6e-45 7.467367e-34 1.1757364e-31 1.17038545e-33 2.889e-41 5.1046805e-33
8.294149e-34 7.320432e-33 1.0051016e-37 1.463611e-32 6e-45 6.565061e-33 1.950079e-31 1.267e-42
8.918808e-34 6e-45 1.7023772e-34 8.8315065e-34 5.1039234e-33 5.040854e-33 4.5407914e-34 1.9145264e-33
9.2886347e-32 1.032872e-32 5.7473985e-37 2.6354096e-32 3.729814e-32 1.5653797e-33 8.87535e-33 1.0970818e-31
9.423397e-30 5.029281e-33 1.173092e-31 9.6041585e-32

fc2.weight f4 [128, 100]
00000000: f799 0a3d 4e91 843d 7f32 afbd 0f00 9fbd
00000010: 547c 743d b013 723d 0c9f ef3c be07 edbc
00000020: 8600 02bd 3eb5 b9bc 6ef9 5dbd 0e29 603d
00000030: 08c4 033d fefb 87bb 82c1 e93c 32f1 cb3d
00000040: ccf9 a4bd 27f6 ed39 c6b6 933c a292 9f3c
00000050: 5416 d7bc 408c 5ebd d70a 233d 4072 70bd
00000060: 8910 953d cb73 b23b 1646 c9bd 848c 423d
00000070: 56c2 8b3d a6f2 643d e008 c6bc a815 87bd
00000080: 606c 6cbd 78cc 233c 85d9 fdbc 622a b53d
00000090: a8e8 333d 8a56 6c3d 6c9e fcbc 9a8a 423d
000000a0: a90a 08bd 6f7c b0bd 2a06 eabd e59c 54bc
000000b0: dadc 48bb 4439 42bd a0ad b13d c46c b73d
000000c0: a527 9dbc e43a bc3d 3c2b 8a3d cc64 413d
000000d0: 922d 53bc efc8 343d bbd4 85bd 6f86 af3c
000000e0: 4123 063c 05bb 403d 890f 8d3d f70e 17bd
000000f0: fce1 9c3d cef5 c5bd 2ac7 98bd 4b5a 75bd
00000100: c579 9cbd 80be bebd 55a4 61bd 37fe b3bd
00000110: 3864 073c cc7d f03d 84d9 833b 436f 99bd
00000120: 3bad 523b 7482 1dbd 6530 893d cdaa a2bd
00000130: 03d3 743c 3631 a13d 09f7 0abd 33bc 4a3d
00000140: 3ece 7cbd fcb9 593c c68d 44bd 1ce1 3abc
00000150: 00d3 293c d462 00bd c171 51bd 57b6 ab3d
00000160: c158 8bbd c1da 793b be16 683c 424b 553d
00000170: d1f6 b53d f799 89bd 056b 56bc 0e2c 58bd
00000180: 980f 67bd 39bf 683d d88a 04be 0be4 08bd
00000190: 214d 8fbd f768 16bd 836c babd e738 8abd
000001a0: f239 7e3d b28f b23d ab96 35bc ae8f f93d
000001b0: 5c8d 333d 89a2 013e 479a 493c 7670 b73c
000001c0: 5bf4 2a3d 4af9 a7bc e968 99bc f23f 773d
000001d0: 15cf 163d dc3a 883d 0aa5 9ebd 1e4f 2bbc
000001e0: d6f1 473d f9df 1abd 22d9 2f3c eea7 2dbd
000001f0: bcf7 09bc 27e1 17bd da21 16bb ee25 22bc
00000200: 7b2d 563d c19c 223d 0967 8a3d d439 493b
00000210: 21fd 413d 27f3 08bd 223f f33c 5835 833d
00000220: 9ce9 dcbd 2ddd da3c 2518 05bc 4754 8fbd
00000230: e67b 1e3c b003 f6bd b60a 09be f424 85bc
00000240: b116 b63c 3736 a8bd 67c6 0e3d 82c9 eebd
00000250: 5150 01bd a43b 58bd 46ca 873d 2379 b03d
00000260: 5222 ce3c 8883 6bbd ecb8 4f3d 6fea 5f3d
00000270: 1209 f8bd 7de7 393d 9370 a6bc 02ac 9fbb
00000280: 8b93 d63c 39cb d93d 5c05 873d 58d2 dabc
00000290: f360 ce3c 924d 7abc 8a9c 1e3e 01d5 823b
000002a0: be08 f2bc 77a3 a2bc 95e3 973c ee8a 933d
000002b0: 3b2e 05bd b4b6 8bbc 3bf4 cf3c 3c35 b03d
000002c0: 6283 7d3d 4b0f 04bd ae92 61bd 6c53 48bd
000002d0: b2e7 873c a9b7 223d acef d5bc 37d1 ddbd
000002e0: 64c8 633d 9ccc c23b d05e 9f3c 0e76 9fbd
000002f0: 1e2d 9fbd 6b95 6dbc 4dd6 ecbc 5306 58bd
00000300: 4e08 27be 71c6 45bd 24b3 653c 4922 6ebd
00000310: 3853 76bd 04a7 76bd b94e b03c 53f8 febd
00000320: a547 5b3d e82e 443d c408 91bd 9f71 783c
00000330: c74d 8d3d 067e b53c c7e4 9c3c c71b 35bc
00000340: 276a 8f3d 4725 61bd 68e1 87bc 86f4 aa3d
00000350: 6c5d 5cbd 5749 0c3d 4f63 36bd 644c 233c
00000360: 996d ae3d cc98 863d 28f3 f8bc d5bc 053d
00000370: 47d1 72bc 2405 78bd 75b1 1cbd 98d0 2a3d
00000380: bd0f 173d 383c 0cbd 0db5 aebd 4964 653d
00000390: f924 943c 8253 36bd fb1c 8abd 89db 02bc
000003a0: ccb1 c23d 82ad 1d3a 5f51 b0bd 27ee 6a3d
000003b0: f277 86bd 631c 88bc a77c ae3d 087b d3bd
000003c0: de17 57bc 2ada 653d 873f f2bd 2cbd 9fbb
000003d0: 1ee6 a53d fe3a 82bd 2fb3 b73d e111 2cbc
000003e0: 2076 573c 8434 0e3d f274 3dbd 94a9 8abc
000003f0: ddb8 cd3d 2923 5a3d e32c a9bd feb5 4d3c
0.03383824 0.06473027 -0.08554553 -0.07763683 0.05968888 0.059100807 0.029250644 -0.028934356
-0.03173878 -0.02266943 -0.054192953 0.054726653 0.03216937 -0.004149913 0.028534655 0.09958114
-0.080554575 0.0004538756 0.01803149 0.0194791 -0.026255764 -0.05433297 0.03980526 -0.058702707
0.072785445 0.0054459325 -0.09827821 0.047497287 0.06824176 0.05589547 -0.024174154 -0.065959275
-0.057720542 0.00999748 -0.03098751 0.088459745 0.04392305 0.057699718 -0.03083726 0.047495462
-0.03321329 -0.08617484 -0.11426957 -0.01297686 -0.0030649216 -0.047417894 0.086756945 0.08956292
-0.019183943 0.0919092 0.067465276 0.047215268 -0.012889283 0.044136938 -0.06534716 0.021426408
0.008187116 0.047053356 0.06887729 -0.036879506 0.076602906 -0.09666024 -0.074598625 -0.059900563
-0.07640413 -0.09313679 -0.05508836 -0.08788722 0.00826364 0.11742744 0.0040237326 -0.074919246
0.003214671 -0.038454488 0.06698684 -0.07942734 0.014942887 0.07870714 -0.033926997 0.049495887
-0.061720125 0.013288971 -0.04798677 -0.011406209 0.010365248 -0.03134425 -0.051133875 0.08384388
-0.06804038 0.0038124772 0.014165578 0.052073725 0.08884967 -0.067188196 -0.013087039 -0.05277639
-0.056411356 0.05682299 -0.1294359 -0.033420604 -0.06997133 -0.036721196 -0.09102728 -0.067491345
0.06206698 0.08718814 -0.011083285 0.12185608 0.043835983 0.12659658 0.012304849 0.022392493
0.04173694 -0.020504612 -0.018726783 0.060363717 0.036818583 0.066518515 -0.077463225 -0.010455875
0.048814617 -0.037811253 0.010732921 -0.04239648 -0.008420881 -0.037079956 -0.002290836 -0.009896738
0.052289467 0.039700273 0.06757934 0.0030704634 0.047360543 -0.033435013 0.02969319 0.06406659
-0.10786745 0.026716793 -0.008123432 -0.069984965 0.009673094 -0.12012422 -0.13382992 -0.016252972
0.022227617 -0.08213466 0.03485718 -0.11659528 -0.031570736 -0.052791253 0.066303775 0.08616855
0.02516285 -0.057498485 0.050713465 0.054666933 -0.12111105 0.04538678 -0.020317351 -0.0048728
0.0261934 0.10634465 0.06592819 -0.026711628 0.025192713 -0.015277283 0.15489402 0.003992677
-0.029545184 -0.019853337 0.018541137 0.07204233 -0.032514792 -0.017054893 0.025385013 0.08603904
0.061892875 -0.032241147 -0.055071525 -0.048907682 0.016589973 0.039725933 -0.026115261 -0.1083092
0.05561103 0.0059448015 0.01945439 -0.07786189 -0.07772277 -0.014500956 -0.02891078 -0.052740406
-0.16311762 -0.04828495 0.014019761 -0.058138166 -0.060137957 -0.060217872 0.021521913 -0.12449708
0.053535122 0.047896296 -0.0708175 0.015163808 0.068996005 0.02215482 0.019152058 -0.011053986
0.07002669 -0.05496719 -0.016586974 0.083474204 -0.05380003 0.03424963 -0.0445283 0.009966943
0.08516998 0.065721124 -0.030389383 0.032650787 -0.014820403 -0.060551777 -0.038255174 0.041702837
0.036880244 -0.034237117 -0.085306264 0.056003843 0.018084036 -0.044513233 -0.06743809 -0.007986912
0.09506568 0.00060149294 -0.0860927 0.057356026 -0.065658465 -0.016615098 0.08519869 -0.10326201
-0.013128249 0.05611626 -0.11828523 -0.004874846 0.08100532 -0.06358908 0.089697234 -0.01050231
0.013150722 0.03471805 -0.046254106 -0.016926564 0.100450255 0.053256188 -0.082605146 0.012555597

fc2.bias f4 [128]
00000000: 199e a5bc f46b 7ebd 62f2 1fbd 0b2e d8bc
00000010: 730e 25bd fc61 fcbd 2dce 7ebd 659a f8bd
00000020: ee93 a7bc 28a0 9cbc 3c31 99bc fea1 81bc
00000030: c421 83bc 54a0 1ebe 17bd bcbc 3f54 e5bc
00000040: e50d 75bd 1efb a5bc c09a cebc ffda b9bc
00000050: bbbb 16be 20fd 163e a0de cfbd 1f43 6dbc
00000060: 4a91 a2bd ef7f 25bd 931b aabc c9a2 f3bb
00000070: af54 a8bc 5d77 ffbc e256 48bd 865e f5bc
00000080: 7703 abbc b750 e3bc 95d0 55bd cae1 e4bc
00000090: aa14 2e3d 1123 85bc 0007 91bc 2e33 aabc
000000a0: d4d6 31bd 58cb 8ebc 321f a8bc e519 98bc
000000b0: e36f b9bc 4aef b3bc bed3 18bd e00f d4bd
000000c0: f4ba 42bd eab4 a2bc 8866 22bd d335 c7bc
000000d0: 49ae c4bc e7ad c9bc f3b8 8dbc d4c3 febc
000000e0: c1f9 96bc 8f73 5fbd 4347 43bd 6ce5 13bd
000000f0: 6922 9cbc 4fd7 67bc fa08 15bd b37d d5bc
00000100: 6ead 2fbd 54fb 3bbc bec0 20be d1ca 72bc
00000110: feab b3bc fdfd 23bd e39a 2abd 1a3f 82bc
00000120: 20a0 18bd 5691 83bd 1e99 673e 6544 15be
00000130: 1137 adbc 53d5 abbc c9b7 ebbd bc96 37bd
00000140: d332 a8bd 1c07 2bbd c1b8 d3bd dcae 8cbc
00000150: 715b 9fbd a24a 60bd fa67 9abd 4f1f 8bbc
00000160: 8c3d 04be 86f7 a0bc a834 9c39 2e25 a5bd
00000170: c866 03bd 89b0 c2bc 3de6 3dbc cce8 88bc
00000180: e3b3 2bbc 5580 513e cb18 34bc 634d f2bc
00000190: c826 bcbc e8df 9cbc ebb2 c9bc f43c 9ebc
000001a0: fddc 12bd 4ccc 14bd 1d95 b4bc f619 ddbd
000001b0: ab5e c7bd cf7a d8bc 5d38 afbd f1c3 fdbd
000001c0: f2d7 c3bd 1d55 52bc eaa5 23bd 600e dc3d
000001d0: 2074 67bd 47f4 8ebc 2663 c4bc ad2f f8bd
000001e0: 8357 9cbc 4656 0fbd c559 b2bc 42b2 d0bd
000001f0: 0b4c ddbc 33bb 513e 94e9 0abd 84c1 79bd
-0.020216988 -0.06211467 -0.039049514 -0.026389142 -0.040296983 -0.123233765 -0.062208343 -0.121388234
-0.02045628 -0.019119337 -0.018700235 -0.015824314 -0.016007312 -0.15490848 -0.023039384 -0.027994273
-0.059827704 -0.020261344 -0.025220275 -0.022687433 -0.14720051 0.14744997 -0.10149884 -0.014481335
-0.07937868 -0.04040521 -0.020765102 -0.007435177 -0.020548193 -0.031184847 -0.048910983 -0.029952299
-0.020875676 -0.027748449 -0.052200872 -0.027939696 0.042500176 -0.016252073 -0.017703533 -0.020776358
-0.043417767 -0.017430946 -0.020522688 -0.018567035 -0.02263636 -0.021964688 -0.037311308 -0.103545904
-0.047541574 -0.019861657 -0.039648563 -0.024317658 -0.024008887 -0.024619056 -0.017300105 -0.031099238
-0.018429639 -0.054553565 -0.047675382 -0.036107466 -0.019059377 -0.014150455 -0.036385514 -0.026060915
-0.042890005 -0.0114734955 -0.15698525 -0.014818863 -0.021932598 -0.040037144 -0.041651618 -0.01589923
-0.037262082 -0.06424205 0.22617003 -0.14576872 -0.021144422 -0.020975744 -0.115096636 -0.044821486
-0.08212819 -0.041754827 -0.103379734 -0.017173223 -0.07781113 -0.054758675 -0.07539363 -0.016982703
-0.12914103 -0.019649278 0.0002979387 -0.08063732 -0.03208044 -0.02376582 -0.011590538 -0.016712569
-0.0104799 0.20459111 -0.010992239 -0.029577916 -0.022967711 -0.019149736 -0.024621448 -0.019316174
-0.035855282 -0.036327645 -0.022043759 -0.10795967 -0.09734853 -0.026425747 -0.08555672 -0.123908885
-0.09562673 -0.012837675 -0.03995315 0.10744929 -0.05650723 -0.017450465 -0.023973059 -0.121184684
-0.019084698 -0.034994386 -0.021771321 -0.1019025 -0.0270138 0.20481567 -0.033914164 -0.060975567

fc3.weight f4 [1, 128]
00000000: 77e5 f4bb 4b52 abbc aa0b ef3d 4d51 76bb
00000010: 8471 1c3c bd96 b4be 0acd 453c e265 9a3d
00000020: 32a8 873b c46a 903b f088 50ba c88f 28bc
00000030: f4ae e0ba 2c35 193d cb65 2fbc e7eb 84bd
00000040: b571 c23c fc4d 66bc ae03 37ba 78d2 dc3c
00000050: 6f24 4a3b a636 15be b946 603d d115 7e3d
00000060: c9d2 4c3b 92de 643d abc1 4f3a 57cc fbb9
00000070: e0f7 1ebc 3b50 15bc 1592 92bc 0cd3 433b
00000080: 8b08 05bc ddce 643c 4b56 0a3d 8b2c 9dbb
00000090: 5235 10bd e4b1 01bb b052 6cbb 2359 77bc
000000a0: 759c 43bc 02bd a2bc c8c7 a3bd 8636 db3d
000000b0: 2d3b 3d3c 9285 d0bb a867 26ba 9764 9f3d
000000c0: 5fe4 18be 7dbd f03b 1f08 e53b c5ed 873d
000000d0: 0125 9a3c 0226 023c d10a 363e 6be9 73bb
000000e0: 231e 833c d3fe 6a3c 06d3 d2bb 83dc 4f3b
000000f0: 59d2 2ebc 7009 1dbb 7b57 d93b 41bd 32bc
00000100: 26c5 7a3d 41e9 003c 5e06 133c f1ce 403b
00000110: 3bb9 463d 7a73 a93d a904 0fbc f7ec ab3b
00000120: 6a34 ba3c 377f 5b3e 0305 67be 6b09 b83d
00000130: d566 d93b 70a4 a73c 61cd ba3d 0292 f63b
00000140: 3947 ca3d 303a 9f3c d177 c43c b9e5 d4bc
00000150: 3ad2 95bc 2c8f 293c a9a8 c0bd 3555 a4bc
00000160: ae40 873c b7f9 193c a7de 3eb7 a1d7 963d
00000170: a8e5 603b cf75 893c 438d 543c 83ea 333b
00000180: 8e86 28bc 937b 7abe 7fee aabb 9c45 fdb8
00000190: db83 21bc 8e6e 40bc 5813 423c 2f4e 883c
000001a0: faba 793b 5583 d53d a528 12bc a035 053d
000001b0: 4781 203d fd12 533b b6a5 bfbd e0d1 fb3c
000001c0: 8221 313d 911b 413d 4f80 e13b a017 d0bd
000001d0: 2981 28be f8f0 533a 1a4c 70bb e3af 5bbe
000001e0: 86b3 e13b 779b b73d d95e 9abb f74f 893d
000001f0: 3702 cdba d11b 59be fd3f 81bc e958 733d
-0.0074736434 -0.020913264 0.116721466 -0.003758508 0.009548549 -0.35271254 0.012072811 0.07538964
0.0041399235 0.0044072587 -0.00079549756 -0.010288186 -0.0017141984 0.037404224 -0.010705422 -0.06490307
0.02373586 -0.014056679 -0.00069814443 0.026955828 0.003084447 -0.14571628 0.054754946 0.062032524
0.0031253567 0.055876322 0.0007925282 -0.00048026696 -0.009702653 -0.009113367 -0.017891923 0.0029880432
-0.008119713 0.013965336 0.0337737 -0.0047965697 -0.0352071 -0.001978987 -0.0036060028 -0.015096935
-0.011939158 -0.019865517 -0.079970896 0.10703759 0.011549753 -0.006363579 -0.00063478434 0.07782858
-0.14930867 0.0073468075 0.0069894935 0.06637148 0.018816473 0.007943632 0.17777564 -0.0037217985
0.016005581 0.014342981 -0.0064338474 0.0031717129 -0.010670268 -0.0023961924 0.006632743 -0.010909379
0.06122317 0.007868112 0.008973686 0.0029420222 0.048516493 0.082739785 -0.008729138 0.0052467543
0.022730071 0.21435247 -0.22560506 0.08986171 0.006634573 0.020464152 0.09121204 0.0075247297
0.09876866 0.019436926 0.023982914 -0.025988447 -0.01828872 0.010349076 -0.09407169 -0.020060161
0.016510334 0.009397916 -1.1376723e-05 0.07365347 0.0034316573 0.016779808 0.012973133 0.0027453012
-0.010285987 -0.24461202 -0.005216419 -0.00012076946 -0.009858097 -0.011745108 0.011845432 0.016638843
0.0038105831 0.1042544 -0.008920823 0.032521844 0.03918579 0.0032207363 -0.09357779 0.030739725
0.043244846 0.04714543 0.0068817507 -0.10160756 -0.1645552 0.00080849184 -0.0036666454 -0.21453814
0.006887856 0.089651994 -0.0047110138 0.06704705 -0.0015640919 -0.21202017 -0.015777582 0.059410963
